model.pt (torch, 59368 bytes, 8 tensors)

enc.conv1.0.weight f4 [16, 3, 3, 3]
000000 3b ff 73 be 85 4b 13 3e 2d b7 f8 bd fa 9f a5 bd
       -0.23827831 0.14384277 -0.12144313 -0.08087154
000010 92 16 02 3e cf 04 15 3e 87 ab 01 bb 59 7d e9 3d
       0.12703922 0.14552616 -0.0019786076 0.11400861
000020 b0 21 b1 3c d3 64 f9 bd 6a b1 aa bd a9 76 13 be
       0.021622509 -0.12177434 -0.0833462 -0.14400734
000030 f6 41 4d 3d fe 96 6b 3e ff 68 f4 3d 68 7f 36 bb
       0.050111733 0.23006818 0.11934089 -0.0027846936
000040 22 5c ff 3c 0a 40 b0 bd bf 13 cc 3c c0 42 8b 3d
       0.031171862 -0.086059645 0.02491176 0.06799841
000050 31 96 ad bd 76 30 43 bd c5 6a 0e 3e e5 e0 09 3e
       -0.08475912 -0.047653638 0.13907917 0.13464697
000060 ae 7b 3b 3b 1b 14 9d bd be 7e 76 3c e2 2f 94 3d
       0.0028607654 -0.076698504 0.015044866 0.072356954
000070 4e 09 f9 bd 06 53 a4 bd 97 81 24 bd fa 47 da 3c
       -0.12159978 -0.08023648 -0.04016265 0.02664565
000080 6f 97 ab 3d 2a a0 a0 3d 23 dc a0 3d f2 47 de 3d
       0.08378493 0.07843049 0.07854488 0.10853566
000090 f1 8f 62 be b0 ee 55 be 67 98 91 3d 13 e6 d5 3d
       -0.22125222 -0.20891833 0.071091466 0.10444274
0000a0 1f 61 88 bb 1a fd cc 3d 36 de be bd 02 ca b5 bd
       -0.0041619684 0.10009213 -0.09319727 -0.088764206
0000b0 72 08 98 3d 92 e2 4c be ce c0 38 be 79 a6 7d bd
       0.07423486 -0.20008305 -0.18042299 -0.06192634
0000c0 34 1a c0 bd af 27 5c be d6 f8 98 bc 72 6f 07 be
       -0.09379998 -0.21499513 -0.018673342 -0.13226107
0000d0 54 ff 3f 3c 63 e4 69 3c b5 83 12 3e a1 0e 15 be
       0.01171859 0.014275643 0.14308055 -0.14556362
0000e0 c2 39 b9 bd b8 c3 9b bd a9 ff f4 bd 9f f7 0f be
       -0.090442196 -0.0760569 -0.11962826 -0.14059304
0000f0 aa 6a d0 bb 51 89 43 bb e9 e1 0e 3d 23 a3 86 3d
       -0.0063603716 -0.0029836486 0.034883413 0.065740846
000100 83 6a 45 bd c3 5f 7b 3d 7c b1 a6 bd d7 dd 60 be
       -0.04819728 0.061370622 -0.08139321 -0.21959625
000110 1b c2 30 be cd cf 5a bd cb 22 a5 bd c6 af a3 bd
       -0.17261545 -0.05342083 -0.08063277 -0.079925105
000120 a0 ad 39 3c 65 d1 33 be 95 5c 1a bd b4 ee 1c be
       0.011332899 -0.17560346 -0.03768595 -0.15325433
000130 a4 20 b4 bd 67 7a 14 3d 02 a9 46 bd d1 eb 18 be
       -0.08795288 0.036249544 -0.048501022 -0.14933707
000140 e7 7a b1 3d d8 bd 99 be 17 1c 3b 3d 4e 38 aa 3e
       0.0866602 -0.30027652 0.045681085 0.33246082
000150 36 92 00 be d8 e1 38 3d 5d f4 9a 3d 60 86 8e be
       -0.12555775 0.045137256 0.0756614 -0.27836895
000160 95 81 2a bd c9 a4 11 3e 4b e5 85 be 58 8c 4d bd
       -0.041627485 0.14223017 -0.261515 -0.05018267
000170 f4 98 44 3e 60 82 64 be e3 70 f1 bb e8 a0 6b 3c
       0.19198972 -0.22315359 -0.0073681935 0.014381625
000180 1f 4b 9f be 49 9d f6 3c a7 ff 73 3e 1d 7f c8 be
       -0.31112 0.030104296 0.23827992 -0.3915948
000190 b3 ba 12 3e 45 d2 59 3e ce ce fe 3c 75 e0 0d be
       0.14329033 0.21271618 0.031104472 -0.13855155
0001a0 e4 ce 02 3d f3 7c 9d be 28 31 eb 3d dc 2e 12 3e
       0.031935588 -0.3075939 0.11483985 0.14275688
0001b0 39 cb ea 3d be 8e 8f 3d 5b 52 91 3e 75 cc 8e bd
       0.11464543 0.07009648 0.28383145 -0.06972591
0001c0 ea f2 78 bd 9d 9c 1e 3e 33 04 d9 bc 8d 6f 48 3d
       -0.060778536 0.1548943 -0.02649126 0.048934508
0001d0 80 00 5b 3e 6c 19 a9 3d 1e c0 08 3b f2 35 18 3e
       0.2138691 0.08256802 0.0020866464 0.14864329
0001e0 ec fd c8 bd 39 30 a3 bd 93 a5 b5 3a b4 9a 10 3e
       -0.09814057 -0.07968182 0.0013858549 0.14121515
0001f0 9b 6d b2 3d 8b 38 93 3e 93 39 9a bc 9c 78 8d bc
       0.08712312 0.28754076 -0.018826282 -0.017269425
000200 2f 53 58 3e 1d 04 4b be 9a e5 81 be 32 5b 38 bc
       0.21125482 -0.19825788 -0.25370485 -0.011252211
000210 ff 32 98 3c 11 22 6f bc 20 63 c8 3d cc 93 c4 bd
       0.018579004 -0.014595524 0.097845316 -0.095985025
000220 d1 78 de bd 5a 3c f1 bd e1 21 a0 bd 39 4d 82 be
       -0.10862888 -0.11779089 -0.07818962 -0.2544954
000230 dd 41 18 3d 30 a4 19 be 65 d5 1c be 73 cd 27 3d
       0.037172187 -0.15004039 -0.15315779 0.040967416
000240 a2 14 52 bd 0e 55 d5 3d 01 da c7 3d 91 53 46 be
       -0.05128921 0.104166135 0.09758378 -0.19367816
000250 58 52 15 3d a9 22 6d 3d 81 9b b5 3c d8 76 b1 bd
       0.036455482 0.057894383 0.022168877 -0.08665246
000260 70 64 6a 3e cd a3 0b 3e fb 3d 50 3d 37 3a 12 3e
       0.22889876 0.13636704 0.05084036 0.1428002
000270 1f 4d 0e be af bd 39 3d 80 b1 62 3b d3 c1 9d 3d
       -0.13896607 0.045346912 0.0034590662 0.07702985
000280 8d d5 1b 3e fb d8 24 3e 4c ed fe 3e ea 79 19 3e
       0.15218182 0.16098396 0.49790418 0.14987913
000290 17 27 16 3e e8 84 53 3e 9e 3b 9a 3c 90 b6 43 bd
       0.14663349 0.20656168 0.018827256 -0.047781527
0002a0 c4 bf 0a 3f 45 d5 80 3e 8b 0f 5f 3e b0 ec b9 3e
       0.5419886 0.25162712 0.21783273 0.3631339
0002b0 3f 6c 9d 3d 71 aa 6d 3e 34 12 ea 3d 3f ae bc bd
       0.07686662 0.2320955 0.11429253 -0.09212922
0002c0 75 21 3f bd 53 04 d9 3e 60 1c b4 3d 33 a2 18 3e
       -0.046662766 0.42386112 0.087944746 0.14905624
0002d0 d4 97 a6 3e 67 fd 9f bd af be e7 3d d5 d4 6f 3d
       0.3253771 -0.078120045 0.11315667 0.05855258
0002e0 f4 68 42 be f7 7d 73 bb 06 ea 81 3e f7 ce cb 3d
       -0.18985349 -0.0037153938 0.25373858 0.09951585
0002f0 98 ab 16 3e eb c2 67 3d 32 7c 84 bd a2 7f 48 bc
       0.14713895 0.056582373 -0.06469001 -0.012237461
000300 be 2a 44 bd ed d2 a1 3d 1c 1c 07 3e f0 df 1f 3e
       -0.047892325 0.07901559 0.13194317 0.15612769
000310 5e e5 c1 bc 36 df 9d 3d 07 aa ab 3d 96 0b 0c 3e
       -0.023668941 0.0770859 0.083820395 0.13676295
000320 67 13 26 bd 9b b2 9b 3d 72 26 b9 bd 5b 82 5b bc
       -0.040545847 0.07602426 -0.09040536 -0.013397778
000330 49 39 6a 3d 1a c3 95 3d dc 77 b6 3d f2 10 23 bc
       0.057183538 0.07312603 0.0890958 -0.009952771
000340 64 7f e8 bd 56 36 af 3c 00 bf 27 3d ae 3c 1e be
       -0.11352423 0.021388214 0.040953636 -0.15452835
000350 8c ec ee 3d 9e dc 21 3e 09 c0 ed 3d 89 f3 23 3e
       0.116662115 0.15806815 0.116088934 0.1601087
000360 90 c5 9f bd d8 ac dd bd 8c a4 26 be ca ce 7b bd
       -0.07801354 -0.10823983 -0.16273707 -0.061476506
000370 bc 21 8e be b9 b0 5b be e8 63 f7 bd cc 41 1c bd
       -0.27760112 -0.21454133 -0.120796025 -0.038148686
000380 4f 14 a6 3c 22 b1 c0 3d ad 92 b6 3c 47 f8 23 3e
       0.020273356 0.094087854 0.022286737 0.16012679
000390 db 0c 0b 3e 3e 35 97 3d 27 f8 8f bd 40 9a 5b 3e
       0.13579123 0.07383202 -0.07029753 0.2144556
0003a0 07 75 5f 3c 51 cc b5 3d ee ac 1e 3e a8 12 55 3e
       0.013638741 0.08876861 0.15495655 0.20807898
0003b0 0c bc 24 3e dd 4f de 3c c9 72 8c 3d f1 32 95 3d
       0.16087359 0.027137691 0.06857831 0.07285107
0003c0 4c 59 8e 3e 41 88 40 3e 6a 4c ad 3e db df c5 3d
       0.27802503 0.18801977 0.33847362 0.09661838
0003d0 3c d5 a9 bd f6 96 eb bb 37 a0 82 3d 7b aa 69 3d
       -0.08292624 -0.007189627 0.06378215 0.05704735
0003e0 75 56 06 bd f4 6a 2e be 1c 7b 48 be cb 6b b5 bd
       -0.032797296 -0.17032987 -0.19578212 -0.088584505
0003f0 2f 48 dc 3c c0 3d dc bc 8a 7d 22 3d 9b db 9d 3c
       0.026889889 -0.026884913 0.039670505 0.019269755

enc.conv1.0.bias f4 [16]
000000 a1 e9 50 3f b1 a9 2e 3f 9e 1e e3 3e 45 b8 5f 3e
       0.8160649 0.6822768 0.44359297 0.21847637
000010 60 6b cb 3d fa aa 17 3f 3f a7 8b 3e 88 fb ca be
       0.099325895 0.59245265 0.27276036 -0.39645028
000020 40 ad af be c6 28 1e 3f f2 55 90 be a4 e0 d1 be
       -0.34311867 0.61780965 -0.2819057 -0.409917
000030 9b a1 17 3f 1c 30 c7 be 57 42 5d 3e 19 91 bf 3e
       0.59230965 -0.38903892 0.21607338 0.37415388

enc.conv2.0.weight f4 [32, 16, 3, 3]
000000 f9 e4 6b 3e 94 af 1d 3e 82 72 fb 3d de 81 d6 3d
       0.23036565 0.15399009 0.122777 0.10473989
000010 8d 42 8b bc 29 88 1d bb 06 ce 39 bc 01 01 0f be
       -0.016999507 -0.0024037457 -0.011340624 -0.13965227
000020 85 db bb 3a cf fa 49 3f 19 d4 15 3f a5 ee 00 3f
       0.001433239 0.7889833 0.5852676 0.5036414
000030 32 f4 eb 3c 81 97 5d be a1 cc 0a bf 8d 67 4a 3e
       0.028802965 -0.21639825 -0.5421849 0.19766064
000040 5e 9a 58 3e b5 b7 c2 3d 01 cf f7 3d 25 7a 21 bf
       0.21152636 0.095076956 0.1210003 -0.63077
000050 b7 5b 5a be f1 84 94 bd 59 d8 83 bf f5 35 28 bf
       -0.21324049 -0.07251919 -1.0300399 -0.6570733
000060 4d 67 ea 3d 86 5c d1 3e f8 c3 46 3f 23 ff 44 3d
       0.11445484 0.40890902 0.77642775 0.04809488
000070 d3 af a5 be 91 96 c0 3e 57 f1 67 3d 84 20 3b be
       -0.32360706 0.37614873 0.056626644 -0.18274122
000080 c4 12 1f bf f3 0f b3 bd e0 c0 b4 be da 35 b7 3d
       -0.6213801 -0.087432764 -0.35303402 0.08945818
000090 10 20 0e 3c 76 0d d3 3c 16 eb fb bd 96 f1 0b 3e
       0.0086746365 0.025763255 -0.123006985 0.13666376
0000a0 88 a4 22 3d dc 98 68 3d 3c c1 8b bd e2 68 1b 3e
       0.03970769 0.056786403 -0.06823966 0.15176728
0000b0 cc be 1f bd e8 2b 95 3e 07 9b 8b 3d 9f 27 27 3d
       -0.039000317 0.2913506 0.068166785 0.04080927
0000c0 5f c2 9d 3d da 99 93 bd 20 51 3a be 63 e5 0a 3e
       0.07703089 -0.07207079 -0.18195009 0.13564067
0000d0 a4 f7 08 bd 8a 0f a4 bd 53 0c 8d bd aa 26 9e 3d
       -0.033439294 -0.08010776 -0.06887116 0.07722218
0000e0 ec 30 ae bc fc db bc 3d 6a 69 ff 3d 82 81 d6 bc
       -0.021263562 0.09221646 0.12471278 -0.026184801
0000f0 a7 2d b3 be 85 e9 04 3e 20 35 23 bc e4 28 2f be
       -0.34995767 0.12979706 -0.009961396 -0.17105442
000100 dc 2d a1 3c 44 02 97 bc a1 a0 25 3e 1f cc 20 3e
       0.019675188 -0.018433698 0.16174556 0.15702866
000110 4b bf dc 3d b4 5b 39 bf 45 48 30 be e4 ea 10 be
       0.10778674 -0.7240555 -0.17215069 -0.14152104
000120 2d ac c5 bd f4 ba fc 3d 3f de bd 3c a9 3b 05 3e
       -0.096519805 0.12340346 0.023177264 0.1301104
000130 c0 db e3 3d 61 22 b5 3d 99 42 0b bf 29 35 a8 bd
       0.11125898 0.08844448 -0.54398495 -0.082132645
000140 3f e1 10 bd b9 0a bc bd f9 a6 3a bf c7 7f 36 bf
       -0.03537106 -0.09181733 -0.7291103 -0.7128872
000150 1f 01 18 be 48 95 02 bf da d3 8e bf de fa 20 3e
       -0.14844178 -0.51009035 -1.1158402 0.15720698
000160 57 09 a5 3e e0 55 91 3e 1b 73 de be 47 ab 18 3e
       0.32233688 0.2838583 -0.43447194 0.14909087
000170 e6 f7 d1 bc 88 74 0d be 32 ef 6e bc ea 2e d2 bc
       -0.025630902 -0.13813984 -0.014583396 -0.025657136
000180 ef ac 16 be 8a 1b 89 3c 51 41 3b bd a3 c3 97 be
       -0.14714406 0.016736764 -0.045716587 -0.29641446
000190 72 9b bb bd 50 c4 86 be ce 81 86 bd 01 e1 3d bd
       -0.09160508 -0.2632165 -0.06567727 -0.04635716
0001a0 de 7d 3a bd 41 7d 40 be a3 db 59 3e e6 21 26 3d
       -0.045530193 -0.1879778 0.21275191 0.04055967
0001b0 1b 01 3d 3e ca 62 56 be 8e 32 dd 3e 02 41 9e 3d
       0.18457453 -0.20936123 0.43202633 0.07727243
0001c0 a9 78 f6 be 23 c4 17 3e 50 0b 04 3f 0a ad 48 3f
       -0.4813893 0.14820914 0.5157976 0.78389037
0001d0 ad 01 43 3f 45 ca 72 bd c4 99 0d 3d c5 15 c1 bd
       0.7617443 -0.05927493 0.03457047 -0.0942798
0001e0 0b f6 59 3e 38 4e 58 3e aa 91 dc 3d 91 b8 21 bf
       0.21285264 0.21123588 0.10769971 -0.6317225
0001f0 39 aa 05 be 29 43 4c be 30 1e 8f 3d 5f fa ae 3c
       -0.13053216 -0.19947495 0.0698818 0.02135962
000200 0e ca 1d bd 10 3c ae 3d 6f ee 5d 3b 01 ae c7 bc
       -0.038522772 0.0850755 0.0033864041 -0.024374964
000210 3f a4 b6 3d 4c 02 44 3e 75 f8 bf 3d 60 2b 1a b6
       0.08918046 0.19141501 0.09373561 -2.2973036e-06
000220 69 e4 33 3e 27 0b 86 3e b6 d3 a6 3b 62 9e 19 3e
       0.175676 0.26180384 0.005091156 0.15001824
000230 78 4a a4 3d a5 cc a5 bd d1 32 11 3e 96 44 91 3d
       0.08022016 -0.080956735 0.14179541 0.0709316
000240 14 06 54 3e 75 04 c7 3d da b9 3d 3e 26 92 60 3d
       0.20705444 0.09717647 0.18527928 0.054826878
000250 84 b8 b1 3d 11 eb c2 3d 0e 8a 3e 3e 11 da 02 3e
       0.08677772 0.095174916 0.18607351 0.12778498
000260 e4 67 0b 3e 19 db 44 3e da d7 38 3e e3 0f 7c 3d
       0.1361385 0.19224204 0.18051091 0.06153859
000270 c1 dc 5d be 13 2b 07 3e be 89 45 bd 10 7c 92 3e
       -0.21666242 0.13200025 -0.048227064 0.28610277
000280 21 cf a4 3e 68 85 94 3d 1e 15 c1 be 64 cf b0 be
       0.32189277 0.07252008 -0.37711424 -0.34533226
000290 05 2b f1 be a9 2a b9 be dd 95 fa 3c c2 c9 76 be
       -0.47103134 -0.3616536 0.030589039 -0.24100402
0002a0 81 4c f5 3e 01 23 88 bd c6 91 8d 3d b0 07 d3 3d
       0.4790993 -0.066473015 0.0691257 0.10304201
0002b0 0b f3 bc be bc b1 d3 be 21 e0 4f 3d 3e 8b 29 3d
       -0.36904177 -0.41346538 0.050750855 0.041392557
0002c0 60 59 e0 be 67 f8 0e 3d d7 74 cb 3e 8c c4 a3 be
       -0.43818188 0.034904864 0.3973758 -0.3198589
0002d0 ef f6 57 3d 92 4c 7e bb 9e c2 cd bc 10 b4 dd bc
       0.05272573 -0.0038802964 -0.025117215 -0.0270634
0002e0 26 6e f8 3d 3e ca 63 3d f5 29 6a 3b 17 c6 3b be
       0.12130384 0.055612795 0.0035730575 -0.18337284
0002f0 f8 fc 89 be 8b e9 63 bd 89 78 5e 3d b9 49 70 3d
       -0.26950812 -0.055642646 0.05431417 0.058664057
000300 ed d1 04 be 8b 25 b9 bc ac 08 35 bc 62 cb 86 3b
       -0.12970705 -0.02260091 -0.011049431 0.0041136006
000310 38 3b 9c 3e e7 d1 51 3e e1 66 a6 bd 5e dd 2d b9
       0.3051393 0.20490228 -0.08125091 -0.00016581031
000320 92 7b 75 3c 9b ae 3e bd c1 c0 b1 3d c8 7c c4 3d
       0.014983075 -0.046553236 0.08679343 0.09594113
000330 c3 97 19 3e 61 7f 1f be d9 8a 4c be 16 9d e5 3a
       0.14999299 -0.15575935 -0.19974841 0.0017518129
000340 01 5e dd bd 16 9c fc bd f2 b6 25 3d 9b 9a 96 3c
       -0.108089454 -0.123344585 0.040457673 0.018384269
000350 45 95 38 3c 48 99 9d 3e 36 99 bd be 38 92 d2 bd
       0.011266057 0.30781007 -0.37030953 -0.10281795
000360 cf 08 73 be 31 0f a9 3c 43 33 02 3d f5 0f c2 bc
       -0.23733829 0.020637127 0.03178717 -0.02368925
000370 80 36 fb bd 25 eb 0d bd cd 40 74 3e 73 16 c3 bd
       -0.122662544 -0.03464808 0.23852845 -0.09525766
000380 8a cb dc 3d af 3f bb be f5 44 4b bd a4 dc c1 be
       0.107810095 -0.36572024 -0.04962631 -0.37863648
000390 cc c7 a0 be 1d 2b cd bd 9c af bd be 8d 92 91 3e
       -0.31402433 -0.10017989 -0.37048042 0.28432122
0003a0 d5 12 1a 3e ad 9a 4c 3e eb 06 ef 3c 98 5e 97 3c
       0.15046246 0.19980879 0.029178103 0.018477723
0003b0 42 d0 7e 3c 4b 83 84 bc 52 36 51 bd e8 f4 84 bd
       0.015552582 -0.016175887 -0.051077195 -0.06492025
0003c0 98 5e ef bd 49 c7 8e bd 6f f9 2d 3d 45 79 14 be
       -0.11687964 -0.069716044 0.042474207 -0.14499386
0003d0 54 45 0a be c3 2f 42 be e7 a3 a9 bd 21 9f 48 bb
       -0.13503009 -0.18963532 -0.08283215 -0.0030612426
0003e0 19 c5 a8 3d ed 05 97 bc 28 c4 f5 be 80 70 9b be
       0.082407184 -0.018435443 -0.48001218 -0.30359268
0003f0 9c e8 4a be 71 f3 a5 be 7d 4d 84 3e 7c 23 bd 3d
       -0.19815296 -0.32412294 0.2584037 0.09235284

enc.conv2.0.bias f4 [32]
000000 c6 f3 8b 3d 5a 9a 17 3e 76 d1 4d 3e 3d 87 49 3e
       0.068336055 0.14804974 0.20099434 0.19680496
000010 5b e6 18 3d 7d 87 4d 3e 6c 9e a9 3e 54 8e 2c 3e
       0.03732906 0.20071216 0.3312868 0.16851169
000020 1c f8 8e bb a7 9f d9 3d 02 49 96 3d a8 fa bf 3e
       -0.004363073 0.106261544 0.07338144 0.37495923
000030 1c c5 51 3d f6 45 e1 3d d1 4b 54 3e cd dd 0a be
       0.05121337 0.10999672 0.20732047 -0.13561173
000040 5a d0 42 3d 50 e6 51 bd 23 79 1a 3f 26 72 83 3b
       0.04756198 -0.051245034 0.6034109 0.0040114103
000050 8f f2 95 3e 91 c1 be 3d 30 7f a0 3d 3a c7 a9 3e
       0.2928662 0.093142636 0.07836759 0.3315981
000060 c6 91 47 3c 41 28 f5 3d 8c be fa 3d a9 55 c5 3d
       0.012180751 0.119705684 0.12243375 0.09635479
000070 87 6c 85 3d 8b 52 25 3e fa 8d 8a 3d d6 16 a1 3e
       0.065148406 0.16144769 0.06765361 0.31462735

dec.trans_conv1.0.weight f4 [32, 16, 4, 4]
000000 4e 1f 9e 3d 72 8c c4 3d a8 e5 c8 3d 00 bb 2e 3e
       0.07720815 0.095971 0.098094285 0.17063522
000010 0e 71 31 bc e4 01 f1 bc 2c e7 21 3d ad 46 af 3d
       -0.010830177 -0.029419847 0.039527103 0.08558402
000020 a8 fc 01 be a5 ba 59 bd 6d bb b4 3b 7d b4 34 bc
       -0.12694037 -0.053156514 0.005515507 -0.01102936
000030 53 41 72 be 10 16 ca bd 79 7e 75 bd e1 6e 17 bb
       -0.23657732 -0.09867489 -0.059935067 -0.002310686
000040 5a cd b3 3d b5 cf de 3d 10 e2 74 3d f0 e0 aa bc
       0.08779402 0.10879461 0.059785903 -0.020859212
000050 33 97 03 3e 21 5b e3 3d 29 b8 38 3e 53 a5 12 3d
       0.12850647 0.11101366 0.18039002 0.035802197
000060 e3 f8 95 3c 35 2b e9 3d 62 cc f2 3d 0d 40 46 3d
       0.018307155 0.11385194 0.11855389 0.048400927
000070 d0 17 98 bd 33 7b b3 3c 7f 1a 8b 3d 52 8f ad 3d
       -0.07426417 0.021909332 0.06792163 0.08474602
000080 ec c3 31 3e 11 e8 6a 3d de be 8a 3d 4b a3 2e 3e
       0.17359895 0.057350222 0.06774686 0.17054479
000090 93 9b b0 be dd 4c 25 3e 55 6f b6 bc 03 4e 4f 3e
       -0.34493694 0.16142602 -0.022269884 0.20244603
0000a0 6a bf b9 3d ba 8a ef 3d 31 80 c3 bc 42 9f 37 be
       0.090697125 0.11696382 -0.023864837 -0.17931846
0000b0 b7 0a 61 3e ee 7a 97 bd a4 4a 7e 3e b5 67 09 3e
       0.21976744 -0.07396494 0.2483316 0.13418467
0000c0 06 15 e3 bd 57 17 b8 be 75 60 f4 be 00 1b 1a bf
       -0.11087994 -0.35955307 -0.4772984 -0.6019745
0000d0 c0 f7 b4 bd e3 af 72 be a1 7d e3 be e4 b6 1e bf
       -0.08836317 -0.23699908 -0.44431785 -0.6199782
0000e0 70 64 9c 3c 74 46 18 bd 92 da 8e bd 4d ff 86 be
       0.019090861 -0.037176564 -0.06975283 -0.26366654
0000f0 b8 1e 5b 3d 6f 1b d0 3d d6 e0 04 3e 25 c3 cf 3d
       0.053496093 0.101614825 0.12976393 0.10144643
000100 ea 27 bf 3c b5 33 60 3b 97 a7 68 3d e6 a8 81 3d
       0.023334462 0.0034210507 0.05680045 0.06331043
000110 05 67 d5 3d 11 58 55 3d 6d 89 1f 3c fd 1f e3 3d
       0.1042004 0.05208594 0.009737355 0.11090086
000120 0f bf 04 3e e4 20 d0 3d 52 aa ff 3d a8 e9 83 3d
       0.12963508 0.101625234 0.12483658 0.06441051
000130 dd a9 5a 3e b2 61 1f 3e 5a 25 d9 3d 57 6d b8 3d
       0.2135386 0.15564612 0.10602827 0.0900523
000140 f2 d5 47 3e 3e c0 5e 3e 7b cc 5c 3e c2 33 2b 3e
       0.19515207 0.21753022 0.21562378 0.16718963
000150 85 56 df 3d bd e8 d8 3d c1 30 1e 3e f1 2e 8d 3d
       0.10905174 0.10591266 0.15448286 0.06893719
000160 76 50 13 3d b1 70 85 3d 0c 67 8e 3d 71 af 97 ba
       0.035965405 0.06515635 0.069532484 -0.0011572671
000170 14 43 4e bd 73 94 b5 3c 9d 5a 72 3d 38 bc a6 3d
       -0.05035694 0.022165513 0.059168447 0.08141369
000180 ba df 5f 3d 64 e7 1f 3d 5c c8 57 3d 0e 3e a5 3d
       0.05465672 0.03903903 0.052681312 0.080684766
000190 6b f3 04 3d ac 86 4b 3d 82 8b 2d bc 32 23 a8 3d
       0.032458704 0.04968898 -0.010592343 0.08209838
0001a0 f0 37 d0 3d 2a 45 f8 3c 0d 90 be 3c b3 50 c5 3c
       0.10166919 0.030306417 0.023262048 0.024086332
0001b0 8a 29 1e 3e 98 6c d6 3d c9 d5 a0 3c f0 18 30 3d
       0.15445533 0.10469931 0.01963319 0.042992532
0001c0 91 87 c4 3d 1e a6 5a 3d 75 23 e8 3d 96 78 11 3e
       0.0959617 0.053381078 0.11334888 0.14206156
0001d0 89 f2 4b 3b 2f a5 1d 3d 66 4a dd bc 10 7c ce 3d
       0.0031119904 0.03848761 -0.027013015 0.10082257
0001e0 e8 70 7b 3d 91 61 25 3c f0 2e 80 bc 80 cc 21 bd
       0.061386973 0.010094062 -0.015647382 -0.039501667
0001f0 f3 40 1c 3e fb 22 c4 3c 76 10 82 bb 2c 32 1c bd
       0.15259151 0.023942461 -0.0039692475 -0.038133785
000200 2a 5f e8 3d 6f 39 03 3e 7e d0 87 3e ee b1 31 3e
       0.11346276 0.12814878 0.26526254 0.17353031
000210 3b cf 8e bc 54 a4 05 3d 8d 59 8b be d5 72 66 3e
       -0.0174328 0.03262742 -0.2721676 0.22504742
000220 2b c7 4f 3e ca 35 0b bb a8 0d 5c 3c 3d 83 ff 3d
       0.2029082 -0.0021241778 0.01343099 0.124762036
000230 9f fc 0c be e8 4b a7 bd cf 52 55 be cb 44 b2 bd
       -0.13768242 -0.08168775 -0.2083237 -0.087045275
000240 9b 69 0f 3e c4 cf 02 3e 65 8a 3b 3e cf 7c 2e 3e
       0.14005129 0.12774569 0.18314512 0.17039798
000250 ad 3b 66 3c 4b e2 55 3d f7 64 b1 bc b3 fb c5 3d
       0.014052314 0.052217763 -0.02165459 0.096671484
000260 12 ed a4 3d 6c ed 00 bd c0 83 6d bd b1 d4 a4 bd
       0.0805303 -0.031476423 -0.057986975 -0.0804838
000270 e2 f8 25 3e 4f 31 86 3b 33 de 24 bd 9a 47 77 bd
       0.16208223 0.0040952335 -0.04025097 -0.06037102
000280 e6 7a 36 be 9c 9a 59 be 39 d9 7c be ce 10 88 be
       -0.1782032 -0.21250385 -0.24692239 -0.2657532
000290 4a 8f c8 3c d7 32 dd bd ed bb e3 bd 61 04 b2 bd
       0.024482388 -0.108007126 -0.111198284 -0.086922415
0002a0 04 fc b5 be 73 59 5a be 8a 2a 92 bd b6 0a d3 3d
       -0.35543835 -0.21323185 -0.0713702 0.10304777
0002b0 79 7f 45 be 48 93 85 3c 6d 00 17 be 62 be f9 3d
       -0.19286908 0.01630558 -0.14746256 0.12194516
0002c0 bc a6 5e bd 38 27 11 be 49 78 03 bf 3f 62 12 bf
       -0.05435823 -0.14175117 -0.51355416 -0.5718116
0002d0 8a 64 3c bc 85 5c 1b be d1 a0 82 be 9b 64 c5 be
       -0.01149858 -0.15172012 -0.25513318 -0.38553318
0002e0 34 a6 8d 3c 31 64 6a bc 65 17 70 bc 78 5f 35 be
       0.017291166 -0.014306114 -0.014654015 -0.177122
0002f0 48 27 b6 3c 2c e0 89 bc d3 96 ed 3b ce d8 41 3d
       0.022235528 -0.016830526 0.0072506457 0.0473259
000300 53 74 19 bd 90 66 84 bd 5e b4 eb bd 34 e5 56 be
       -0.03746445 -0.06464875 -0.11509012 -0.20985872
000310 e0 82 44 3e 00 be 35 3e a5 0a 87 3e c5 9a 6c 3d
       0.1919055 0.1774826 0.2637531 0.057764787
000320 5a 94 03 3e 7b c8 5d 3e 61 16 a7 3e 67 4d 8c 3e
       0.1284956 0.21658508 0.3263426 0.27402803
000330 d0 d1 86 3d 53 ad 31 3e 92 e2 8e 3e 7d 35 93 3e
       0.06582987 0.17351274 0.27907234 0.28751746
000340 0d 9b 11 3e 5e 33 84 3e 11 4b a7 3e 8f 08 8a 3e
       0.14219303 0.2582044 0.3267446 0.26959655
000350 91 47 62 3d 8f ad ed 3d 02 f9 40 3e 79 96 d5 3d
       0.055244032 0.11605369 0.18844989 0.10429091
000360 01 8b 00 bd 36 70 d8 3c 58 39 bf 3d f4 f7 c6 3c
       -0.031382564 0.026420694 0.09337109 0.024288155
000370 66 de f4 bd f7 9d 46 bd 71 fb 47 3c 37 1b 9c 3d
       -0.11956482 -0.04849049 0.012205944 0.07622378
000380 57 a4 6b bc a8 93 1c bd 2c c9 f6 bd 24 7b 88 bd
       -0.014382443 -0.038226753 -0.12050089 -0.06664112
000390 e7 9d 07 3e 0c 58 bf 3d c0 2a 28 3e ba f7 26 3e
       0.13243829 0.093429655 0.16422558 0.16305438
0003a0 1e 32 42 3d 36 8c 29 3e 73 7e 50 3e 7f 3b 90 3e
       0.047411077 0.16557392 0.20360737 0.28170392
0003b0 28 9a 14 bc f8 5d 34 3e 65 2b 45 3e dc c4 5b 3e
       -0.009069957 0.17613971 0.19254835 0.21461815
0003c0 f8 9f 20 3e cc a0 a3 bd b0 70 93 bd 60 1b a1 bd
       0.15686023 -0.07989654 -0.07199228 -0.078665495
0003d0 72 19 ba 3d 5f 54 3b be c6 ae 71 bc 01 76 f4 bd
       0.090868846 -0.18293904 -0.014751142 -0.1193657
0003e0 f5 c2 c5 bd a1 f2 18 be 65 28 97 bc 32 c2 71 bd
       -0.09656326 -0.14936306 -0.018451879 -0.05902309
0003f0 9e 1e 30 be fa 03 1a be 76 e5 97 bd 4f 0f aa bd
       -0.1719918 -0.1504058 -0.07416813 -0.08303701

dec.trans_conv1.0.bias f4 [16]
000000 67 1f 2b 3d 22 bc 5f bc b7 b4 90 bd 92 5c 4b be
       0.041777994 -0.013655694 -0.070657186 -0.19859532
000010 66 e4 96 3e c4 94 8b 3d ff ea 29 3e 75 65 f1 3d
       0.2947113 0.06815484 0.1659355 0.117869295
000020 74 38 01 be d1 90 75 3d 10 78 50 be 4f 4f e8 bd
       -0.12619191 0.05995256 -0.203583 -0.11343252
000030 a9 32 95 3d 50 13 8f 3e 40 f7 74 3e a4 b3 50 be
       0.07285053 0.27944422 0.23922443 -0.20381027

dec.trans_conv2.0.weight f4 [16, 3, 4, 4]
000000 ed cf 1a 3e 90 a7 b7 3a 6b f8 18 be ad 3d a6 be
       0.1511838 0.001401173 -0.14938514 -0.3246893
000010 78 ab 68 3e b8 57 99 3d af 94 b6 bd fe d7 86 be
       0.2272166 0.07487434 -0.08915078 -0.26336664
000020 8a 34 92 3e f5 c8 12 3e fc f5 01 bd 38 ad 41 be
       0.2855571 0.14334472 -0.03172873 -0.18913734
000030 ac a0 b1 3e 31 20 5f 3e e5 9e 2e 3d 97 04 0c be
       0.34692895 0.21789624 0.042632002 -0.13673626
000040 2b 56 6f 3e 1f 63 c0 3d 0a be 82 bd d3 5f 5b be
       0.23372714 0.09393906 -0.06383903 -0.21423273
000050 0f 50 90 3e b6 b1 25 3e 71 ac 99 3c 54 fa 1f be
       0.2818608 0.16181073 0.018758984 -0.15622836
000060 33 ce bb 3e 4b 62 68 3e 2d fe 9b 3d 56 64 ae bd
       0.36680755 0.22693746 0.076168396 -0.08515231
000070 d5 f9 d3 3e 2f d9 8e 3e 82 69 ea 3d d2 db 02 bd
       0.41401544 0.27900073 0.11445905 -0.03194792
000080 fb 67 9e 3e 4d 12 46 3e fd 24 39 3d 18 fc c6 bd
       0.30938706 0.19342919 0.04520129 -0.09716052
000090 22 b1 c6 3e 69 09 86 3e 5d 84 d3 3d 37 55 7b bd
       0.38807017 0.26179054 0.10327981 -0.061360564
0000a0 ab d7 e7 3e 49 ab a5 3e 27 bb 30 3e 2f 8e af 3c
       0.4528173 0.32357243 0.17258893 0.021430103
0000b0 7e ed 02 3f 85 fe cb 3e 3c 63 70 3e 3d ce 8d 3d
       0.51143634 0.3984262 0.23475355 0.069241025
0000c0 15 3c 10 be 2f 4f bf bd 5c f7 ea bc 46 b5 61 3d
       -0.1408542 -0.09341275 -0.028682403 0.055104516
0000d0 16 63 35 be 54 15 af bd c7 89 66 bd 89 f3 28 3d
       -0.1771358 -0.0854899 -0.05628374 0.04124788
0000e0 87 a1 22 be ba ec 01 be ca 8f 81 bd 1a 2b 12 3d
       -0.1588193 -0.1268796 -0.06326254 0.035685636
0000f0 3c 02 1e be 08 b2 ed bd 01 52 f0 3b f0 0c 7a 3d
       -0.1543054 -0.116062224 0.0073339944 0.061047494
000100 21 9e 42 3d 3a 5b d5 3d 83 71 60 3e ca 7a 8d 3e
       0.047514085 0.10417791 0.21918301 0.27632743
000110 1c e2 68 3d 84 55 ad 3d 93 0e 16 3e 2b 6f 76 3e
       0.05685626 0.084635764 0.14653997 0.24065845
000120 7c cd 87 3c 3d 92 d0 3d 0a 6f 17 3e 56 f6 54 3e
       0.016577475 0.10184143 0.14788452 0.20797095
000130 4b 14 75 3d 24 2a 96 3d 21 ab 30 3e 6b 10 6e 3e
       0.059833806 0.073322564 0.1725278 0.2324845
000140 3b 28 60 3e c9 fe 67 3e fd ab 98 3e 8f 58 cf 3e
       0.21890347 0.22655787 0.29818717 0.40497252
000150 93 97 58 3e 54 45 8e 3e 48 b1 9c 3e 85 0b cf 3e
       0.21151571 0.27787268 0.30604005 0.40438476
000160 59 55 51 3e aa df 95 3e b7 f0 9e 3e 78 0c bd 3e
       0.20442714 0.29272205 0.31043026 0.36923575
000170 ba 7f 44 3e 87 e3 6f 3e 7d 97 9e 3e c4 e8 de 3e
       0.19189349 0.23426639 0.3097495 0.4353696
000180 c8 34 0d 3f ea 46 0b 3f 6f 60 05 3f 14 59 00 3f
       0.5515866 0.5440508 0.5210027 0.5013592
000190 64 50 09 3f 42 52 08 3f de c1 03 3f 16 fc fc 3e
       0.5363829 0.53250515 0.5146769 0.49411076
0001a0 ee b3 02 3f 51 a5 01 3f 5c 41 ff 3e c2 25 f3 3e
       0.510558 0.5064288 0.49854553 0.47489744
0001b0 51 a8 ed 3e 81 96 e8 3e c9 a6 e3 3e ff de e1 3e
       0.46417478 0.45427325 0.44463184 0.44115445
0001c0 ed 1f ea 3e 63 1f e7 3e 2e ea df 3e 4d 00 d2 3e
       0.45727482 0.45141134 0.43733352 0.41015854
0001d0 3f 4c e9 3e 70 d6 e1 3e ab ed d9 3e 1b d1 cd 3e
       0.45565984 0.44108915 0.4256414 0.40198597
0001e0 7a 47 d9 3e 1d 17 d6 3e 52 1f ce 3e f9 7d c7 3e
       0.42437345 0.4181451 0.4025827 0.38963297
0001f0 1a b1 c4 3e 8c 1f c4 3e d9 9a bf 3e 48 fb b4 3e
       0.38416368 0.38305318 0.37422827 0.35347962
000200 c0 73 dc 3e 83 d2 d5 3e f9 2f cb 3e 3b 6e bb 3e
       0.4305706 0.4176217 0.39685038 0.36607537
000210 7b b9 d4 3e ee 52 cf 3e 6b 03 ca 3e 27 5a bf 3e
       0.4154776 0.40492958 0.39455733 0.37373468
000220 be 89 c6 3e ef fc c1 3e ba 42 bd 3e fa 37 b1 3e
       0.38776964 0.37888286 0.3696497 0.3461302
000230 ce 26 b2 3e 32 10 af 3e 79 c1 aa 3e 68 a7 a0 3e
       0.3479523 0.34192044 0.33350733 0.3137772
000240 fd 12 66 bf 16 f2 78 bf 1f 9a 7e bf 91 71 77 bf
       -0.89872724 -0.97244394 -0.9945392 -0.96657664
000250 d8 7f 6f bf fa 69 82 bf 80 8c 83 bf b6 3f 80 bf
       -0.9355445 -1.0188591 -1.0277252 -1.0019443
000260 4e ee 70 bf d1 d0 80 bf 31 6d 83 bf 5c 61 80 bf
       -0.94113624 -1.0063726 -1.0267698 -1.0029712
000270 da 77 67 bf 05 4d 77 bf 7b 70 7e bf f8 f4 75 bf
       -0.90417254 -0.966019 -0.9939038 -0.9607692
000280 44 ce 4f bf 7e 01 62 bf 1f 66 6c bf 86 20 64 bf
       -0.8117411 -0.88283527 -0.92343324 -0.89112127
000290 dd 45 5c bf ce e6 6d bf 73 10 74 bf 65 d6 6b bf
       -0.860441 -0.92930305 -0.953376 -0.92124015
0002a0 ab ba 5b bf 8d 11 70 bf d4 1d 73 bf ed 08 6d bf
       -0.8583171 -0.9377678 -0.9496739 -0.92591745
0002b0 e7 1c 56 bf 0e 81 65 bf 7e 90 6b bf ab 08 62 bf
       -0.8363785 -0.89650047 -0.9201735 -0.88294476
0002c0 fd 75 3e bf a2 33 4f bf 63 78 54 bf e0 ba 4e bf
       -0.74398786 -0.8093816 -0.82996196 -0.807539
0002d0 d9 d6 4a bf 79 2d 5d bf 68 d9 61 bf f8 b1 5a bf
       -0.7923408 -0.8639751 -0.8822236 -0.8542781
0002e0 6c db 4b bf 62 db 5e bf b4 6a 62 bf ad bb 59 bf
       -0.79631686 -0.870535 -0.88444066 -0.85051996
0002f0 7d bf 43 bf 3d 50 55 bf 3a c8 59 bf 8c 5e 53 bf
       -0.7646406 -0.8332556 -0.85071146 -0.8256614
000300 46 52 9f bb 10 1e f6 3c 0f 05 cc 3d d3 f2 1b 3e
       -0.0048621027 0.030043632 0.09961902 0.15229349
000310 d2 13 84 bd e4 fe c5 3b a4 26 4e 3d 34 49 bf 3d
       -0.06449093 0.006042348 0.05032982 0.09340134
000320 d4 d2 f2 bd 51 96 66 bd 28 e9 bf bb 7f e0 5d 3d
       -0.118566185 -0.056295697 -0.005856652 0.054169174
000330 c9 c5 25 be 77 4d ca bd 76 22 c3 bc e6 5f da 3c
       -0.1618873 -0.098780565 -0.023820143 0.026657056
000340 e6 92 8a be df 00 3a be f5 73 b2 bd 3f f2 93 bd
       -0.270652 -0.18164395 -0.08713523 -0.07223939
000350 72 28 7c be 9a 05 70 be 3c 78 08 be 36 b8 f7 bd
       -0.24624804 -0.23439637 -0.13327116 -0.12095682
000360 e9 6c 93 be c6 78 68 be e7 ed 32 be 65 d6 f7 bd
       -0.2879403 -0.22702321 -0.17473565 -0.121014394
000370 8e 8e 9a be 3c 4b 8d be b3 20 4b be 8f 25 17 be
       -0.30186886 -0.27596462 -0.19836693 -0.14760421
000380 84 55 84 be 4c e3 62 be 85 a5 13 be f6 0f b8 bd
       -0.25846493 -0.2215702 -0.1441861 -0.08987419
000390 1f 95 8b be 31 90 3d be a5 5a 3d be bc 0e dd bd
       -0.27262208 -0.18512036 -0.1849161 -0.10793826
0003a0 47 13 98 be 02 b7 68 be e7 3d 52 be 12 c3 2c be
       -0.29702207 -0.22726062 -0.20531426 -0.16871288
0003b0 36 5d a7 be d3 c8 80 be 62 a1 53 be 3c 5f 1a be
       -0.32688302 -0.25153217 -0.20667031 -0.15075392
0003c0 7a 38 30 be a8 37 d7 bd 9a 2e 50 bd 9a 7f 15 bd
       -0.17209044 -0.105086625 -0.050825693 -0.036498643
0003d0 a7 80 ad bd 08 b9 59 bc 56 3f 54 3d b5 61 7c 3d
       -0.08471804 -0.013288744 0.051818214 0.06161662
0003e0 0b 05 af bc 4f 59 57 3d df 47 d8 3d 02 1f ef 3d
       -0.02136471 0.052575406 0.10560583 0.11675836
0003f0 43 3f 0d 3d 36 8c f7 3d a0 2e 3b 3e 43 89 39 3e
       0.03448416 0.1208729 0.18279505 0.18118767

dec.trans_conv2.0.bias f4 [3]
000000 43 56 38 bd 10 1a 0d be b3 de 3d bd
       -0.04500414 -0.13779473 -0.04635496
